model.tflite (tflite, 25732 bytes, 7 tensors)

sequential/conv1d/BiasAdd/ReadVariableOp f4 [32]
0	0xbd777522	-0.06041444
1	0xbd89d243	-0.06729557
2	0x3cf5aaa8	0.029988602
3	0xbdab14ab	-0.083535515
4	0x3d6a20e7	0.057160284
5	0xbe4c2068	-0.19934237
6	0xbe1517f4	-0.14559919
7	0xbd386c27	-0.045025017
8	0xbce67309	-0.028131025
9	0xbe19cfa3	-0.15020613
10	0xbd8782f2	-0.06616773
11	0xbd121375	-0.035663087
12	0x3c14399e	0.00904694
13	0xbda178f4	-0.07884398
14	0x3a81cdce	0.0009903254
15	0x3e07e211	0.13269831
16	0xbbef59d5	-0.00730441
17	0x3c240d79	0.010012978
18	0xbd09defb	-0.033659916
19	0xbde2b919	-0.11070461
20	0x3c8c2aef	0.017110316
21	0xbd9c07c4	-0.07618669
22	0xbe065d85	-0.13121612
23	0xbc863a7f	-0.016385315
24	0x3d0e71bc	0.034776434
25	0x3d105561	0.035237674
26	0x3c5115cd	0.012761545
27	0xbd66f818	-0.056388944
28	0xbd57fa83	-0.05272914
29	0xbce6512c	-0.028114878
30	0xbd115d56	-0.035489403
31	0xbe6b2f7d	-0.22967334

sequential/conv1d/Conv1D f4 [32, 1, 9, 1]
0	0xbbbd6320	-0.005779639
1	0x3de997ed	0.11405931
2	0xbd15a761	-0.036536578
3	0xbd7a5e47	-0.061125066
4	0xbe22507e	-0.15851018
5	0xbeae40f7	-0.3403394
6	0x3d8eb5e1	0.069682844
7	0xbf2600f6	-0.64845216
8	0x3ce7cd8f	0.02829626
9	0xbfc02bae	-1.501333
10	0x3d6478ac	0.055779144
11	0x3e2c7a16	0.16843447
12	0x3db30bf8	0.08742517
13	0xbf07bd9a	-0.53023684
14	0xbf0892f0	-0.5334921
15	0x3e4b2a40	0.19840336
16	0x3d996e14	0.07491699
17	0xbe3d7870	-0.18502975
18	0x3d73323a	0.05937407
19	0x3e4912e5	0.19636114
20	0xbdf8cf11	-0.1214887
21	0xbe5568aa	-0.20840707
22	0xbfa235f6	-1.2672718
23	0xbeb5f88e	-0.35541195
24	0xbec09f7e	-0.37621683
25	0x3e1867b3	0.14883308
26	0xbd191655	-0.037374813
27	0x3e7bdb1e	0.24595305
28	0xbcc953d1	-0.0245761
29	0x3dc0fb74	0.09422961
30	0xbd84762b	-0.06467851
31	0xbc613a52	-0.013746815
32	0xbd571499	-0.052509878
33	0xbeecbf1c	-0.46239555
34	0xbb684719	-0.0035442768
35	0xbdf708aa	-0.120621994
36	0x3d9102bb	0.07080599
37	0xbe27df43	-0.16393761
38	0x3d114a93	0.03547151
39	0xbf143f18	-0.57908773
40	0x3ccee36f	0.025254933
41	0xbef78348	-0.48342347
42	0xbeae16d0	-0.3400178
43	0x3e25c16e	0.16187069
44	0xbce04f45	-0.027381549
45	0xbc7332d9	-0.014843666
46	0x3e770cd2	0.24125984
47	0x3e59b7d1	0.21261527
48	0x3e327fc6	0.17431554
49	0xbe7e5c76	-0.24839959
50	0x3e2928c5	0.16519459
51	0xbd3ca73f	-0.046057936
52	0xbec41c6d	-0.38302937
53	0x3d130773	0.035895776
54	0x3de4f589	0.111796446
55	0xbde577f7	-0.11204522
56	0x3c083cec	0.008315306
57	0x3de2d768	0.11076242
58	0x3dc6af1f	0.097013704
59	0x3d44f031	0.048080627
60	0x3e0741ca	0.1320869
61	0xbe0f9042	-0.14019874
62	0xbee023cd	-0.43777314
63	0x3de597ea	0.11210616
64	0x3d03605e	0.032074325
65	0x3e417c14	0.18894988
66	0x3ca7566b	0.02042695
67	0xbecfc09c	-0.40576637
68	0xbca4b2f2	-0.020104859
69	0xbb7ae9c7	-0.0038286315
70	0x3e09f155	0.13470967
71	0x3c807bce	0.015684035
72	0x3d0afb11	0.03393084
73	0xbe6c152c	-0.23054951
74	0x3e7b0881	0.24514963
75	0xbee77470	-0.45206022
76	0x3dbb9748	0.09159714
77	0xbf292248	-0.66067934
78	0xbdf92b81	-0.12166501
79	0x3e4bb49e	0.19893119
80	0xbd392eb7	-0.045210566
81	0x3df5b829	0.119980164
82	0xbeabcf3e	-0.3355655
83	0xbd3c179b	-0.04592095
84	0x3d595e05	0.05306818
85	0xbd16ef38	-0.03684923
86	0xbe5ebae3	-0.21750979
87	0x3ec9942a	0.39370853
88	0xbca5f91b	-0.020260384
89	0xbead7e27	-0.3388531
90	0xbeb0fdaa	-0.3456853
91	0x3d695aa9	0.056971226
92	0x3e9140f2	0.28369862
93	0x3cb47f5b	0.022033384
94	0xbe6577cf	-0.22408985
95	0xbf5e5c39	-0.8685947
96	0xbdd168c5	-0.10225061
97	0x3e799141	0.24371816
98	0xbdd3f49a	-0.103493884
99	0x3e481960	0.1954093
100	0xbe0ba234	-0.13636094
101	0x3d4fc7ce	0.050727658
102	0x3d3dcfbb	0.046340685
103	0xbea693ef	-0.3253474
104	0x3d1c6411	0.03818137
105	0x3cb26db7	0.021780832
106	0x3dc35f22	0.095396295
107	0xbea84877	-0.32867786
108	0x3d17742d	0.03697603
109	0x3e1e2fdd	0.15447946
110	0x3d7a2014	0.06106575
111	0xbe0e9389	-0.13923468
112	0xbf115270	-0.56766415
113	0xbee85c0e	-0.45382732
114	0xbc8a0e97	-0.01685266
115	0xbf753782	-0.95787823
116	0x3dd886c3	0.10572579
117	0xbdb6796e	-0.089098796
118	0x3e1bf1f0	0.1522901
119	0x3e152fb0	0.14568973
120	0x3e198d9b	0.14995424
121	0xbe9a7314	-0.30165923
122	0x3e285690	0.16439271
123	0xbeb756f3	-0.35808524
124	0x3e900428	0.2812817
125	0xbdab72b2	-0.08371486
126	0xbcc81011	-0.024421724
127	0xbd74526b	-0.059648912
128	0x3d95a560	0.073069334
129	0xbd88f240	-0.066868305
130	0x3b2e9edf	0.0026644988
131	0x3de451bc	0.11148402
132	0x3e1dfefa	0.15429297
133	0x3dfb3e63	0.12267759
134	0x3dff2093	0.12457385
135	0xbeca95c3	-0.39567384
136	0xbdc15912	-0.09440817
137	0xbe2d91ff	-0.16950224
138	0x3d326f77	0.043563332
139	0xbef69354	-0.48159277
140	0xbd3f6570	-0.046727598
141	0x3ea6fb26	0.32613486
142	0xbd39b957	-0.04534277
143	0x3d13fb6d	0.03612845
144	0xbde4c75e	-0.11170839
145	0xbd144fb3	-0.03620882
146	0xbe08c9e6	-0.13358268
147	0xbec95258	-0.39320636
148	0xbe3d7b74	-0.18504125
149	0x3e9d73ab	0.3075231
150	0xbd700dc9	-0.058606897
151	0xbe8e7c28	-0.278291
152	0xbe748753	-0.23879747
153	0x3e8546ec	0.26030672
154	0x3c3e993c	0.011633214
155	0x3d76115e	0.060075156
156	0x3e140aa3	0.14457183
157	0xbd34ef2a	-0.044173397
158	0xbc9e0756	-0.019290607
159	0xbd8132c2	-0.063085094
160	0xbf8b6c5e	-1.0892446
161	0xbe0764d1	-0.13222052
162	0x3da28954	0.079363495
163	0xbd7d5838	-0.06185171
164	0x3c3e778d	0.011625183
165	0x3de7ad11	0.11312307
166	0x3e77c63f	0.24196719
167	0x3b6a09a2	0.0035711308
168	0xbca8c377	-0.020601017
169	0xbe1c0d40	-0.1523943
170	0x3d718ea1	0.058973912
171	0x3eb13df3	0.34617576
172	0xbe1d475b	-0.15359251
173	0x3dde1b87	0.10845094
174	0x3d5e3cd7	0.05425724
175	0x3d2b32e3	0.041796576
176	0xbd374b0f	-0.044749316
177	0xbdc4ee0f	-0.096157186
178	0xbdbaf59f	-0.0912888
179	0xbd0659be	-0.03280043
180	0xbc8a1c58	-0.016859218
181	0xc02860b5	-2.6309025
182	0xbe497372	-0.19672945
183	0x3e03303d	0.1281137
184	0x3e9dd40a	0.30825835
185	0xbce54985	-0.027989158
186	0xbf6a2fd6	-0.9147924
187	0xbced60f0	-0.028976887
188	0xbe830d78	-0.25596213
189	0x3e86eb55	0.2635142
190	0x3cfb7fa7	0.030700518
191	0x3c440168	0.011963226
192	0x3dafb5b0	0.08579576
193	0x3ccba499	0.02485876
194	0x3ce994d5	0.028513351
195	0x3e2f51c0	0.17121029
196	0xbe891d4e	-0.2678017
197	0xbe2279e0	-0.15866804
198	0x3e03d2f8	0.12873447
199	0xbebccffb	-0.36877427
200	0xbfd06f61	-1.628399
201	0xbd84893c	-0.06471488
202	0xbeb3686e	-0.3504061
203	0xbdc11f3b	-0.09429785
204	0x3eb981b4	0.36231768
205	0xbdef1600	-0.11674118
206	0xbe93eab7	-0.2889001
207	0xbe1f53b3	-0.15559272
208	0x3dacaac4	0.084310085
209	0x3cf83c33	0.030302143
210	0x3d788015	0.060669024
211	0x3e038b0d	0.12846012
212	0xbea8ac84	-0.3294412
213	0x3deceae6	0.11568241
214	0x3e80942a	0.2511304
215	0x3b0f04c5	0.0021822911
216	0x3e81c89e	0.2534837
217	0xbddc5a11	-0.10759366
218	0x3cc1773c	0.023616426
219	0x3d8778ef	0.06614863
220	0xbf13ee07	-0.57785076
221	0xbe193b49	-0.14964022
222	0x3e29a77c	0.16567796
223	0xbe39964e	-0.18123743
224	0xbead429c	-0.3383988
225	0x3db0fe64	0.08642271
226	0xbe80c5e0	-0.25150967
227	0xbe2b06e5	-0.16701849
228	0xbeacf596	-0.33781117
229	0x3d1acf4b	0.037795346
230	0x3e2d9de6	0.16954765
231	0x3e294d2e	0.16533348
232	0x3d2f6eec	0.042830393
233	0x3db2859b	0.087168895
234	0x3dee9e0f	0.11651241
235	0xbcf8ffdc	-0.03039544
236	0x3df5858b	0.11988362
237	0x3d959837	0.07304423
238	0xbd15704e	-0.036484055
239	0xbd4697fb	-0.048484784
240	0xbed1a150	-0.40943384
241	0xbfa21454	-1.2662454
242	0xbd124f78	-0.03572032
243	0x3e0e187e	0.1387653
244	0xbe705881	-0.23471262
245	0x3d06d503	0.032917988
246	0x3d6188fa	0.05506227
247	0x3c8e83b3	0.017396783
248	0xbdc2c87e	-0.09510897
249	0x3e155342	0.14582542
250	0xbceb0579	-0.028689133
251	0xbdcaa3b8	-0.09894508
252	0x3af57079	0.0018725536
253	0xbd8a1f45	-0.067442454
254	0xbe402043	-0.18762307
255	0xbd59aaee	-0.053141527

sequential/lstm/Read_2/ReadVariableOp f4 [64]
0	0x3e857929	0.26069
1	0x3e50cd7b	0.20390885
2	0x3ed41c09	0.4142764
3	0x3e262f5d	0.16229005
4	0x3f12d60b	0.57357854
5	0x3dfefc1f	0.12450432
6	0x3e007328	0.12543929
7	0x3eb7afe0	0.3587637
8	0x3f5f615c	0.87257934
9	0x3f3a03d9	0.7266212
10	0xbe794ac0	-0.24344921
11	0x3de768ca	0.11299284
12	0x3ea810af	0.3282523
13	0x3dc72004	0.09722903
14	0x3f547e3a	0.83005106
15	0x3e0956ad	0.1341197
16	0x3f92a681	1.1457063
17	0x3f937e41	1.1522905
18	0x3f803e86	1.0019081
19	0x3f7a5833	0.9779083
20	0x3f899686	1.0749061
21	0x3f769aac	0.9632976
22	0x3f88ae0c	1.0678115
23	0x3f98ce2f	1.1937922
24	0x3fb4fb14	1.4139123
25	0x3f9528e2	1.1653101
26	0x3f699165	0.9123748
27	0x3f85436f	1.0411204
28	0x3f845e9b	1.0341371
29	0x3f72ed99	0.94893795
30	0x3fa86d4a	1.3158352
31	0x3f89830a	1.0743115
32	0x3dd89ae1	0.10576416
33	0x3e0d95b2	0.13826635
34	0x3d9c339c	0.07627031
35	0xbccf34be	-0.025293704
36	0xbda4d12b	-0.08047708
37	0x3e80cc6c	0.25155962
38	0xbd73466f	-0.059393343
39	0x3cd88bc3	0.026433831
40	0xbda7ef4d	-0.0819994
41	0x3e178609	0.14797224
42	0xbdaa4b51	-0.08315147
43	0x3cce16b2	0.025157306
44	0x3e0231ad	0.12714262
45	0xbc96773a	-0.018367399
46	0x3d5f8598	0.054570764
47	0x3dac1685	0.08402733
48	0xbda6a5dc	-0.08137104
49	0x3c9f1334	0.019418336
50	0xbd8017c5	-0.06254534
51	0x3c6cd3e1	0.014454813
52	0x3e48867f	0.19582556
53	0x3dbc2cbc	0.0918822
54	0xbd050c70	-0.032482564
55	0x3e86467c	0.2622565
56	0x3eaacd10	0.33359575
57	0x3eb4d7f0	0.35320997
58	0xbe381d52	-0.17979935
59	0x3dd2ee88	0.102994025
60	0xbc835479	-0.01603149
61	0xbcc59e57	-0.024123354
62	0x3e35494c	0.17703742
63	0x3e674db5	0.22588237

sequential/dense/MatMul f4 [1, 16]
0	0xbec28bfd	-0.37997428
1	0x3e8f6e7f	0.2801399
2	0x3f11b2ce	0.5691346
3	0x3ef334f1	0.4750133
4	0x3d98e88e	0.07466231
5	0x3e756eb6	0.23968014
6	0xbf0ffbad	-0.562434
7	0x3dbf7bff	0.09349822
8	0x3e08cd2a	0.13359514
9	0x3e4f0d9b	0.20220034
10	0x3e03a039	0.12854089
11	0x3ede54e1	0.43424132
12	0x3df719a5	0.12065438
13	0xbefddcf6	-0.49582642
14	0x3e1be5c7	0.15224372
15	0x3e88bf95	0.26708665

sequential/lstm/Read_2/ReadVariableOp1 f4 [64]
0	0x3e857929	0.26069
1	0x3e50cd7b	0.20390885
2	0x3ed41c09	0.4142764
3	0x3e262f5d	0.16229005
4	0x3f12d60b	0.57357854
5	0x3dfefc1f	0.12450432
6	0x3e007328	0.12543929
7	0x3eb7afe0	0.3587637
8	0x3f5f615c	0.87257934
9	0x3f3a03d9	0.7266212
10	0xbe794ac0	-0.24344921
11	0x3de768ca	0.11299284
12	0x3ea810af	0.3282523
13	0x3dc72004	0.09722903
14	0x3f547e3a	0.83005106
15	0x3e0956ad	0.1341197
16	0x3f92a681	1.1457063
17	0x3f937e41	1.1522905
18	0x3f803e86	1.0019081
19	0x3f7a5833	0.9779083
20	0x3f899686	1.0749061
21	0x3f769aac	0.9632976
22	0x3f88ae0c	1.0678115
23	0x3f98ce2f	1.1937922
24	0x3fb4fb14	1.4139123
25	0x3f9528e2	1.1653101
26	0x3f699165	0.9123748
27	0x3f85436f	1.0411204
28	0x3f845e9b	1.0341371
29	0x3f72ed99	0.94893795
30	0x3fa86d4a	1.3158352
31	0x3f89830a	1.0743115
32	0x3dd89ae1	0.10576416
33	0x3e0d95b2	0.13826635
34	0x3d9c339c	0.07627031
35	0xbccf34be	-0.025293704
36	0xbda4d12b	-0.08047708
37	0x3e80cc6c	0.25155962
38	0xbd73466f	-0.059393343
39	0x3cd88bc3	0.026433831
40	0xbda7ef4d	-0.0819994
41	0x3e178609	0.14797224
42	0xbdaa4b51	-0.08315147
43	0x3cce16b2	0.025157306
44	0x3e0231ad	0.12714262
45	0xbc96773a	-0.018367399
46	0x3d5f8598	0.054570764
47	0x3dac1685	0.08402733
48	0xbda6a5dc	-0.08137104
49	0x3c9f1334	0.019418336
50	0xbd8017c5	-0.06254534
51	0x3c6cd3e1	0.014454813
52	0x3e48867f	0.19582556
53	0x3dbc2cbc	0.0918822
54	0xbd050c70	-0.032482564
55	0x3e86467c	0.2622565
56	0x3eaacd10	0.33359575
57	0x3eb4d7f0	0.35320997
58	0xbe381d52	-0.17979935
59	0x3dd2ee88	0.102994025
60	0xbc835479	-0.01603149
61	0xbcc59e57	-0.024123354
62	0x3e35494c	0.17703742
63	0x3e674db5	0.22588237

while/MatMul_11 f4 [64, 16]
0	0x3d9579ff	0.072986595
1	0x3ee26d62	0.44224077
2	0x3d5995bc	0.053121313
3	0x3f0ed6ab	0.5579631
4	0xbe62ef90	-0.22161698
5	0xbea95f91	-0.33080724
6	0xbe276343	-0.16346459
7	0x3f2bebc5	0.6715663
8	0x3c8772d2	0.016534243
9	0x3d810983	0.06300642
10	0x3e3ef518	0.18648183
11	0xbe66e2b1	-0.22547413
12	0xbb5ee438	-0.003401054
13	0xbe3d6ca6	-0.18498477
14	0xbe37af86	-0.1793805
15	0x3e4be8f8	0.1991309
16	0xbd846009	-0.0646363
17	0x3eb39029	0.35070923
18	0xbe05fefa	-0.13085547
19	0x3e3dd4ed	0.18538256
20	0xbeb5c862	-0.35504442
21	0xbdb4e903	-0.08833506
22	0xbdf0ffee	-0.11767565
23	0xbe2819f8	-0.16416156
24	0xbce212b7	-0.027596815
25	0xbddcc9ef	-0.10780703
26	0x3ea9333f	0.3304691
27	0x3d1a9d41	0.037747625
28	0x3dba6356	0.09100978
29	0x3dddbb1d	0.10826705
30	0xbeadb118	-0.33924174
31	0xbea26dbf	-0.31724355
32	0xbe70eb39	-0.2352723
33	0x3d812619	0.06306095
34	0x3dabddec	0.083919376
35	0x3e8b35cd	0.27189484
36	0x3cbf9f06	0.023391258
37	0xbe6ac9f2	-0.22928599
38	0xbe29c518	-0.16579092
39	0x3e0fd726	0.14046916
40	0x3ecf6df6	0.4051358
41	0x3eb945fd	0.3618621
42	0x3eb34a2a	0.3501752
43	0x3d0f9f12	0.03506381
44	0xbd46548e	-0.04842048
45	0xbe4a61cc	-0.19763869
46	0xbe8750a3	-0.26428708
47	0xbdd28763	-0.10279729
48	0x3e159888	0.14608967
49	0x3e278646	0.16359815
50	0x3e03706d	0.12835856
51	0xbdad9242	-0.08475162
52	0x3e952343	0.29128465
53	0x3d6364ac	0.05551593
54	0xbe47a59c	-0.19496769
55	0xbee9a3a6	-0.45632666
56	0x3eb1387e	0.34613413
57	0x3e83516f	0.25648066
58	0xbe1a0a8d	-0.15043087
59	0xbeac7443	-0.3368245
60	0x3e77dc84	0.24205214
61	0x3e163400	0.14668274
62	0x3ec92401	0.3928528
63	0x3f0b4887	0.5440754
64	0xbf0887fe	-0.5333251
65	0x3f4a1d64	0.78951097
66	0x3f3b7b2d	0.73234826
67	0x3fa6beb1	1.3026944
68	0x3ebd44a1	0.36966422
69	0xbe7e9d60	-0.24864721
70	0xbea4287e	-0.32062143
71	0xbf01c7ad	-0.50695306
72	0x3f558a0a	0.83413756
73	0x3f048433	0.5176422
74	0x3f22ad80	0.6354599
75	0xbebba17a	-0.36646634
76	0x3f1307fe	0.5743407
77	0xbf31df7e	-0.69481647
78	0x3e793508	0.24336636
79	0x3edba693	0.42900524
80	0xbde088ec	-0.10963616
81	0x3d0ed2f1	0.03486914
82	0x3ed610c6	0.41809672
83	0x3ebffdcb	0.37498316
84	0x3ec8095e	0.39069647
85	0x3c6c0af4	0.014406908
86	0xbed5fbe3	-0.41793737
87	0x3e8a967c	0.27067935
88	0x3b43a33d	0.0029851936
89	0xbb8129ed	-0.0039417655
90	0x3ee4a693	0.44658336
91	0x3dce6db8	0.10079521
92	0xbe5bad9e	-0.21452948
93	0xbeb7f903	-0.35932168
94	0x3e0e1040	0.13873386
95	0x3ce6937f	0.028146503
96	0x3ddeaac0	0.10872412
97	0x3e69d484	0.22834975
98	0xbdb46ee7	-0.088102154
99	0xbd0d84bb	-0.03455041
100	0xbe1d39c4	-0.15354067
101	0x3dba89b9	0.091083
102	0x3e65a6f9	0.22426976
103	0x3db831e4	0.08993891
104	0x3da88ec3	0.08230355
105	0x3ece6e5c	0.40318573
106	0x3e52a639	0.20571221
107	0xbc4f8f64	-0.012668464
108	0x3de4d7a3	0.11173942
109	0xbd7ff74d	-0.062491704
110	0xbdbd5864	-0.09245375
111	0x3ccd272e	0.025043096
112	0xbe9b045a	-0.30276757
113	0x3f0fcaaa	0.56168616
114	0x3f270be3	0.6525251
115	0x3ea72354	0.3264414
116	0x3d880687	0.0664187
117	0xbe8f1d57	-0.27952072
118	0xbf19c075	-0.6005929
119	0xbcab8e71	-0.020941945
120	0x3f303211	0.68826395
121	0x3e069d3b	0.13145916
122	0x3f1c63ab	0.6108958
123	0xbee5aad3	-0.4485689
124	0xbe77b5a9	-0.24190392
125	0xbf2b4a1d	-0.6690996
126	0xbf046510	-0.5171671
127	0x3e2395ba	0.15975085
128	0xbedf9fe3	-0.4367667
129	0x3f3482b9	0.70511967
130	0x3f2fc2ec	0.686568
131	0x3f64ab9b	0.8932435
132	0xbef84503	-0.48490152
133	0xbf14d881	-0.5814286
134	0xbee85cbb	-0.45383248
135	0xbf02661e	-0.5093707
136	0x3f941963	1.1570247
137	0xbf779036	-0.96704423
138	0x3eb22105	0.34790817
139	0xbf40d82f	-0.7532987
140	0x3f717b42	0.943287
141	0xbeb884a4	-0.36038697
142	0x3e87d181	0.26527026
143	0xbe138f4d	-0.14410134
144	0x3e1094a1	0.14119197
145	0x3f4fc1e7	0.81155246
146	0x3ea4880a	0.3213504
147	0x3f2b4c62	0.66913426
148	0x3b840704	0.0040291566
149	0xbe721025	-0.23638971
150	0xbeef3376	-0.4671895
151	0x3e616fd7	0.2201532
152	0x3ea8a775	0.3294026
153	0x3ee58f53	0.4483591
154	0x3ea1df55	0.316157
155	0xbef68caa	-0.48154193
156	0xbf1927d8	-0.5982642
157	0xbe8e8248	-0.27833772
158	0x3ea4cd29	0.32187775
159	0x3f16dee1	0.58933836
160	0x3e3d943f	0.18513583
161	0xbe926981	-0.28596118
162	0xbf131161	-0.57448393
163	0xbf04b29b	-0.5183503
164	0x3ef6e2e7	0.48219988
165	0x3e0de459	0.13856639
166	0x3e1b33a5	0.1515642
167	0x3f0f02ee	0.55863845
168	0xbe87cffc	-0.26525867
169	0x3e00a4cf	0.1256287
170	0xbe9e05da	-0.3086384
171	0x3e8ed396	0.27895802
172	0xbe905201	-0.28187564
173	0x3d98bd15	0.074579395
174	0xbd76799c	-0.06017457
175	0x3e2e3cf4	0.1701544
176	0xbd1779c0	-0.036981344
177	0x3e808800	0.2510376
178	0x3ea07823	0.31341657
179	0x3ed6383c	0.41839778
180	0xbd594d47	-0.053052213
181	0xbe8b7401	-0.2723694
182	0xbe5a0d55	-0.21294148
183	0xbd305509	-0.043049846
184	0x3e87b446	0.26504725
185	0x3e90f6f4	0.2831341
186	0xbba6ecbb	-0.0050941384
187	0xbe4dbcce	-0.20091555
188	0xbeb5292a	-0.35382968
189	0xbe1a0879	-0.15042295
190	0x3ecc6169	0.39918068
191	0xbae4941b	-0.0017439158
192	0x3ac951ed	0.0015359499
193	0xbd2bbfe2	-0.04193104
194	0x3ea93834	0.33050692
195	0x3e09cb33	0.1345642
196	0xbeeebade	-0.46626943
197	0x3e7467dc	0.23867744
198	0x3e1a0dd8	0.15044343
199	0xbea8a24e	-0.3293633
200	0x3e90a027	0.28247187
201	0x3e2f05b5	0.17092021
202	0xbe17d109	-0.14825834
203	0xbda13565	-0.07871512
204	0x3f106167	0.56398624
205	0xbdb2db40	-0.08733225
206	0x3eba8151	0.36426786
207	0x3f39f3d2	0.72637665
208	0xbe9e9084	-0.30969632
209	0x3e808da9	0.25108078
210	0x3e0dd0fb	0.13849251
211	0x3e5df59e	0.21675727
212	0x3e7c292f	0.24625085
213	0x3d814a03	0.06312945
214	0xbe95fa9e	-0.29292768
215	0x3de3cfb9	0.11123604
216	0x3eb388a7	0.35065195
217	0x3b84aab3	0.0040486692
218	0x3d316f29	0.0433189
219	0x3ddeced2	0.108792916
220	0xbe80a505	-0.251259
221	0xbde7e792	-0.113234654
222	0xbe5cde70	-0.21569228
223	0x3e7d312f	0.24725793
224	0x3dc68f19	0.096952625
225	0x3f14b0ae	0.5808209
226	0x3ec4b143	0.3841649
227	0x3da9d57e	0.082926735
228	0x3c4b820a	0.01242114
229	0xbf6bfe2a	-0.921847
230	0xbf144e6f	-0.5793218
231	0x3f0e68b9	0.55628544
232	0xbf42e50a	-0.76130736
233	0x3f0fa5b9	0.5611225
234	0x3ec989b5	0.39362875
235	0xbf22443c	-0.6338537
236	0xbf8b1e3c	-1.0868602
237	0xbe86815a	-0.26270562
238	0x3ecc6d2a	0.39927036
239	0xbf13453b	-0.5752751
240	0xbee36219	-0.4441078
241	0x3dd361f2	0.10321416
242	0x3e5014ba	0.20320407
243	0x3e2a4015	0.16626008
244	0xbe65fdb1	-0.22460057
245	0xbee43cfb	-0.44577774
246	0xbd4b5c38	-0.049648494
247	0xbde1c419	-0.11023731
248	0x3dc30258	0.095219314
249	0xbe9763f9	-0.2956846
250	0x3e149fc3	0.1451407
251	0xbe8b3f8f	-0.2719693
252	0x3dc1c13c	0.09460685
253	0xbdffbb23	-0.12486865
254	0x3eb07729	0.34465912
255	0x3e0c350f	0.13692115

while/MatMul f4 [64, 32]
0	0x3de4a64c	0.11164531
1	0xbe4d7084	-0.20062453
2	0x3eccb3d4	0.39980948
3	0x3e7f5c05	0.24937446
4	0xbbbb5dc3	-0.0057179644
5	0x3e136ae3	0.14396243
6	0x3e89b8a3	0.2689868
7	0xbdcfa939	-0.101396985
8	0x3ee76b93	0.4519926
9	0xbdf39e78	-0.1189546
10	0xbdc26157	-0.09491222
11	0x3d2275aa	0.039662994
12	0x3eabd98d	0.33564416
13	0x3e4865a3	0.19570021
14	0xbd883b63	-0.06651952
15	0xbd22fcde	-0.039791934
16	0xbd0a5938	-0.033776492
17	0x3daafc3d	0.08348892
18	0x3dd4196c	0.10356411
19	0x3eb742c7	0.35793135
20	0xbd893aad	-0.06700645
21	0x3e2c0962	0.16800454
22	0xbe8dd73d	-0.27703276
23	0xbe495af4	-0.19663602
24	0xbe7a10d9	-0.2442049
25	0x3cddbe4f	0.027068285
26	0x3f0a5468	0.54035044
27	0xbe78d5d8	-0.24300325
28	0xbdd01121	-0.10159517
29	0x3e823544	0.25431263
30	0x3cc3ef81	0.023917915
31	0x3f1caf90	0.6120539
32	0xbe7eb114	-0.24872237
33	0x3c65de50	0.014030054
34	0xbe4e74b0	-0.201617
35	0xbd3a656c	-0.04550688
36	0xbcf06a86	-0.02934767
37	0xbeaad77f	-0.33367535
38	0x3d437f41	0.04772878
39	0x3e56bff2	0.20971659
40	0x3ecfa65c	0.4055661
41	0x3e2e7e22	0.17040303
42	0x3d20eb58	0.03928694
43	0x3dbfd8b8	0.09367508
44	0xbe08d668	-0.1336304
45	0xbd9f4cb2	-0.077783
46	0x3e5a8f7d	0.21343799
47	0x3dc54619	0.09632511
48	0x3ef219d2	0.47285324
49	0x3d67aaf4	0.056559518
50	0x3e9002ca	0.28127128
51	0x3d8a0a1c	0.067402095
52	0x3e213ec3	0.15746598
53	0xbda41210	-0.08011258
54	0xbd264191	-0.040589873
55	0xbe9c76de	-0.30559438
56	0xbd23ffcc	-0.04003887
57	0x3d982eb6	0.074307844
58	0xbde48a01	-0.11159135
59	0x3e480364	0.19532543
60	0xbd9d55ef	-0.07682406
61	0x3e1118ce	0.14169618
62	0xbe90b1fe	-0.28260797
63	0xbe7dcacb	-0.2478439
64	0x3f1c91ac	0.6115978
65	0x3edf534e	0.43618244
66	0x3ed9abe4	0.42513955
67	0x3ec99b33	0.3937622
68	0x3f50cb93	0.8156063
69	0x3ead1164	0.3380233
70	0x3e1f3d15	0.15550645
71	0x3e8f87f4	0.28033412
72	0x3ead7ebb	0.3388575
73	0x3e7fadab	0.24968593
74	0x3ed0f814	0.4081427
75	0x3f34f118	0.7068038
76	0x3e95d625	0.29264942
77	0x3f20e25e	0.6284541
78	0x3c1faad6	0.00974532
79	0x3e30b8fc	0.17258066
80	0x3ef2e10a	0.47437316
81	0x3f33299f	0.69985384
82	0x3e8e2725	0.2776424
83	0x3ee79acd	0.4523529
84	0x3da11f10	0.07867253
85	0x3efdc2d7	0.49562714
86	0x3d2e322c	0.042528316
87	0x3edb1a7b	0.4279364
88	0x3f25d9a6	0.6478523
89	0x3ed16453	0.40896854
90	0x3e4e4812	0.2014468
91	0x3deb1f00	0.11480522
92	0xbe587bfe	-0.2114105
93	0x3e9b1e05	0.3029634
94	0x3e3586d1	0.1772721
95	0x3eb519f5	0.35371366
96	0x3d084e2e	0.033277683
97	0x3e458011	0.19287135
98	0x3e57a34d	0.21058388
99	0xbdf7edfa	-0.12105937
100	0x3cf31341	0.029672267
101	0x3e36b4e1	0.17842437
102	0x3e0703ad	0.13184996
103	0xbcff001d	-0.031127984
104	0x3eb4ed9a	0.35337526
105	0x3c9d62bc	0.01921212
106	0x3dc94ff7	0.09829705
107	0x3c4b777e	0.012418626
108	0xbc4ab855	-0.01237305
109	0xbddeee20	-0.108852625
110	0xbde28e95	-0.110623516
111	0x3e5d0f9c	0.21587986
112	0x3dedb742	0.11607219
113	0x3d945f19	0.07244701
114	0xbd5c886c	-0.05384104
115	0xbe171595	-0.14754327
116	0xbe84eeec	-0.25963533
117	0xbdebeb9d	-0.11519549
118	0x3e64e02b	0.22351138
119	0x3df09eb2	0.11749019
120	0x3ca976da	0.020686556
121	0xbe118687	-0.14211474
122	0xbe7fbe93	-0.24975042
123	0xbe063118	-0.13104665
124	0x3dd52a26	0.1040843
125	0xbc65239f	-0.0139855435
126	0xbe4d19f5	-0.20029433
127	0xbd72dc79	-0.05929229
128	0xbe29dba1	-0.16587688
129	0xbe393c2e	-0.18089363
130	0xbd1e9d03	-0.038723957
131	0x3db2523b	0.087070905
132	0x3e2e8d2d	0.17046042
133	0xbe867062	-0.26257616
134	0x3e0b29d4	0.13590175
135	0x3e25210f	0.16125892
136	0x3b673e62	0.0035284986
137	0x3e65bef9	0.22436132
138	0xbec26738	-0.37969375
139	0xbd9450fb	-0.07242008
140	0x3d36b37f	0.044604775
141	0xbeac85c7	-0.33695814
142	0xbf46c564	-0.77644944
143	0xbd213131	-0.039353553
144	0x3d953eec	0.07287392
145	0xbdbd31fe	-0.09238051
146	0x3e790d7a	0.24321547
147	0x3e85c877	0.26129505
148	0xbe6b3228	-0.22968352
149	0x3dab6e14	0.08370605
150	0x3f8d383e	1.1032789
151	0xbec9715d	-0.39344302
152	0x3d69fbca	0.05712489
153	0xbbf4ff3f	-0.007476717
154	0x3dd4e5ac	0.10395369
155	0xbd6d3ef8	-0.05792138
156	0x3df087ec	0.11744675
157	0xbef910c2	-0.48645598
158	0xbecf3191	-0.40467504
159	0x3e4da76d	0.20083399
160	0x3e3d0639	0.18459405
161	0xbdc19971	-0.09453095
162	0x3e043dd0	0.12914205
163	0xbca47007	-0.02007295
164	0x3e321117	0.17389332
165	0x3c76ae10	0.015056148
166	0x3e5afbc5	0.21385105
167	0x3ef68170	0.48145628
168	0x3e876f25	0.26451984
169	0xbe1ef3cb	-0.15522687
170	0x3e251e52	0.16124848
171	0x3e2daaf8	0.1695975
172	0x3e80e3e9	0.25173882
173	0x3c4c916e	0.012485845
174	0x3eef967a	0.46794492
175	0xbdc5153b	-0.0962319
176	0x3ec9c2ea	0.3940652
177	0x3d023b13	0.03179462
178	0x3d25934d	0.04042368
179	0x3e00513a	0.12530985
180	0x3f000e8d	0.500222
181	0x3df3636c	0.118841976
182	0xbe15707c	-0.1459369
183	0x3eac32a5	0.3363239
184	0xbe07e229	-0.13269867
185	0x3e8c29bf	0.273756
186	0x3e24f2b7	0.16108213
187	0x3e711f7b	0.23547165
188	0x3eceda1e	0.40400785
189	0x3ea9bbf3	0.33151206
190	0xbd60945d	-0.05482899
191	0x3e7a05f3	0.24416332
192	0x3e6ac4ba	0.22926608
193	0x3e90c4ed	0.28275242
194	0x3ed37018	0.41296458
195	0x3ea9178d	0.3302578
196	0x3d187985	0.037225265
197	0x3d1c95e7	0.038228896
198	0x3eaf49d1	0.34236005
199	0x3e86504c	0.26233137
200	0x3d13adc5	0.03605439
201	0x3c1b1945	0.009466474
202	0x3e4fc3d4	0.20289546
203	0xba4fa96e	-0.00079216703
204	0x3e6722c3	0.22571854
205	0x3de019ff	0.10942458
206	0xbb08d5b3	-0.0020879328
207	0x3d952c47	0.07283836
208	0xbe77bef1	-0.24193932
209	0xbe0317af	-0.12802003
210	0x3e4cabb5	0.19987376
211	0x3e9d1c6d	0.3068575
212	0xbde63582	-0.112406746
213	0x3e63e40f	0.22254966
214	0x3ef9a7ad	0.4876074
215	0x3eb6df2e	0.35717148
216	0x3e8ecd6a	0.27891093
217	0x3e12a9f8	0.1432265
218	0xbe2847a6	-0.16433582
219	0x3dc1fd5c	0.094721526
220	0xbe12a209	-0.14319624
221	0x3e300282	0.17188457
222	0x3e60e563	0.21962504
223	0x3ddd6b76	0.10811512
224	0x3d077da8	0.03307882
225	0x3e4f69de	0.20255229
226	0xbdac1f33	-0.08404388
227	0xbd746b6b	-0.059672754
228	0xbe13ed49	-0.14445986
229	0xbd3e3453	-0.04643662
230	0x3bd1aef4	0.00639903
231	0xbdfa4347	-0.122198634
232	0xbd67ae00	-0.056562424
233	0xbde4d9b4	-0.11174336
234	0xbd0f5405	-0.034992237
235	0x3cc6b760	0.024257362
236	0x3d796789	0.060889754
237	0x3d645c62	0.055752166
238	0xbe494f6b	-0.19659202
239	0xbe62c1e5	-0.22144277
240	0xbeb19f69	-0.34691933
241	0xbd0b21e3	-0.033967864
242	0xbd8d268c	-0.06892118
243	0xbd8aa094	-0.06768909
244	0x3e1bbe72	0.15209368
245	0xbd5376e1	-0.051627044
246	0xbe548d11	-0.20756938
247	0x3dfbb692	0.12290682
248	0xbe0bb63e	-0.13643739
249	0xbe0f771f	-0.14010285
250	0xbdd1f0df	-0.10251021
251	0xbd967792	-0.07347025
252	0xbe31b06e	-0.17352459
253	0xbe117ed8	-0.14208543
254	0x3e190783	0.14944272
255	0xbd9625ca	-0.073314264
